…
############## LOAD DATA ###################
horovod: hvdsize:  4
############## LOAD DATA ###################
horovod: hvdsize:  4
############## LOAD DATA ###################
_________________________________________________________________
Layer (type)                 Output Shape              Param #   
_________________________________________________________________
Layer (type)                 Output Shape              Param #   
=================================================================
=================================================================
input_1 (InputLayer)         (None, 64, 64, 3)         0         
_________________________________________________________________
input_1 (InputLayer)         (None, 64, 64, 3)         0         
_________________________________________________________________
conv2d (Conv2D)              (None, 64, 64, 64)        1792      
_________________________________________________________________
conv2d (Conv2D)              (None, 64, 64, 64)        1792      
_________________________________________________________________
_________________________________________________________________
Layer (type)                 Output Shape              Param #   
=================================================================
batch_normalization (BatchNo (None, 64, 64, 64)        256       
_________________________________________________________________
input_1 (InputLayer)         (None, 64, 64, 3)         0         
batch_normalization (BatchNo (None, 64, 64, 64)        256       
_________________________________________________________________
_________________________________________________________________
max_pooling2d (MaxPooling2D) (None, 32, 32, 64)        0         
_________________________________________________________________
max_pooling2d (MaxPooling2D) (None, 32, 32, 64)        0         
_________________________________________________________________
dropout (Dropout)            (None, 32, 32, 64)        0         
_________________________________________________________________
dropout (Dropout)            (None, 32, 32, 64)        0         
_________________________________________________________________
conv2d (Conv2D)              (None, 64, 64, 64)        1792      
_________________________________________________________________
conv2d_1 (Conv2D)            (None, 16, 16, 128)       73856     
_________________________________________________________________
conv2d_1 (Conv2D)            (None, 16, 16, 128)       73856     
_________________________________________________________________
batch_normalization (BatchNo (None, 64, 64, 64)        256       
batch_normalization_1 (Batch (None, 16, 16, 128)       512       
_________________________________________________________________
_________________________________________________________________
batch_normalization_1 (Batch (None, 16, 16, 128)       512       
_________________________________________________________________
max_pooling2d (MaxPooling2D) (None, 32, 32, 64)        0         
max_pooling2d_1 (MaxPooling2 (None, 8, 8, 128)         0         
_________________________________________________________________
_________________________________________________________________
max_pooling2d_1 (MaxPooling2 (None, 8, 8, 128)         0         
_________________________________________________________________
dropout (Dropout)            (None, 32, 32, 64)        0         
dropout_1 (Dropout)          (None, 8, 8, 128)         0         
_________________________________________________________________
_________________________________________________________________
dropout_1 (Dropout)          (None, 8, 8, 128)         0         
_________________________________________________________________
conv2d_2 (Conv2D)            (None, 8, 8, 256)         295168    
conv2d_2 (Conv2D)            (None, 8, 8, 256)         295168    
_________________________________________________________________
conv2d_1 (Conv2D)            (None, 16, 16, 128)       73856     
_________________________________________________________________
_________________________________________________________________
batch_normalization_2 (Batch (None, 8, 8, 256)         1024      
_________________________________________________________________
batch_normalization_2 (Batch (None, 8, 8, 256)         1024      
_________________________________________________________________
batch_normalization_1 (Batch (None, 16, 16, 128)       512       
_________________________________________________________________
max_pooling2d_2 (MaxPooling2 (None, 4, 4, 256)         0         
_________________________________________________________________
max_pooling2d_2 (MaxPooling2 (None, 4, 4, 256)         0         
max_pooling2d_1 (MaxPooling2 (None, 8, 8, 128)         0         
_________________________________________________________________
_________________________________________________________________
conv2d_3 (Conv2D)            (None, 2, 2, 256)         590080    
_________________________________________________________________
dropout_1 (Dropout)          (None, 8, 8, 128)         0         
conv2d_3 (Conv2D)            (None, 2, 2, 256)         590080    
_________________________________________________________________
_________________________________________________________________
batch_normalization_3 (Batch (None, 2, 2, 256)         1024      
_________________________________________________________________
conv2d_2 (Conv2D)            (None, 8, 8, 256)         295168    
_________________________________________________________________
batch_normalization_3 (Batch (None, 2, 2, 256)         1024      
_________________________________________________________________
flatten (Flatten)            (None, 1024)              0         
flatten (Flatten)            (None, 1024)              0         
_________________________________________________________________
_________________________________________________________________
dense (Dense)                (None, 512)               524800    
_________________________________________________________________
batch_normalization_2 (Batch (None, 8, 8, 256)         1024      
_________________________________________________________________
dense (Dense)                (None, 512)               524800    
dropout_2 (Dropout)          (None, 512)               0         
_________________________________________________________________
max_pooling2d_2 (MaxPooling2 (None, 4, 4, 256)         0         
dropout_2 (Dropout)          (None, 512)               0         
_________________________________________________________________
_________________________________________________________________
_________________________________________________________________
dense_1 (Dense)              (None, 1)                 513       
=================================================================
dense_1 (Dense)              (None, 1)                 513       
conv2d_3 (Conv2D)            (None, 2, 2, 256)         590080    
=================================================================
_________________________________________________________________
batch_normalization_3 (Batch (None, 2, 2, 256)         1024      
_________________________________________________________________
flatten (Flatten)            (None, 1024)              0         
_________________________________________________________________
dense (Dense)                (None, 512)               524800    
_________________________________________________________________
dropout_2 (Dropout)          (None, 512)               0         
_________________________________________________________________
dense_1 (Dense)              (None, 1)                 513       
=================================================================
Total params: 1,489,025
Trainable params: 1,487,617
Non-trainable params: 1,408
_________________________________________________________________
Total params: 1,489,025
Trainable params: 1,487,617
Non-trainable params: 1,408
_________________________________________________________________
_________________________________________________________________
Layer (type)                 Output Shape              Param #   
=================================================================
input_1 (InputLayer)         (None, 64, 64, 3)         0         
_________________________________________________________________
Total params: 1,489,025
Trainable params: 1,487,617
Non-trainable params: 1,408
_________________________________________________________________
conv2d (Conv2D)              (None, 64, 64, 64)        1792      
_________________________________________________________________
batch_normalization (BatchNo (None, 64, 64, 64)        256       
_________________________________________________________________
max_pooling2d (MaxPooling2D) (None, 32, 32, 64)        0         
_________________________________________________________________
dropout (Dropout)            (None, 32, 32, 64)        0         
_________________________________________________________________
conv2d_1 (Conv2D)            (None, 16, 16, 128)       73856     
_________________________________________________________________
batch_normalization_1 (Batch (None, 16, 16, 128)       512       
_________________________________________________________________
max_pooling2d_1 (MaxPooling2 (None, 8, 8, 128)         0         
_________________________________________________________________
dropout_1 (Dropout)          (None, 8, 8, 128)         0         
_________________________________________________________________
conv2d_2 (Conv2D)            (None, 8, 8, 256)         295168    
_________________________________________________________________
batch_normalization_2 (Batch (None, 8, 8, 256)         1024      
_________________________________________________________________
max_pooling2d_2 (MaxPooling2 (None, 4, 4, 256)         0         
_________________________________________________________________
conv2d_3 (Conv2D)            (None, 2, 2, 256)         590080    
_________________________________________________________________
batch_normalization_3 (Batch (None, 2, 2, 256)         1024      
_________________________________________________________________
flatten (Flatten)            (None, 1024)              0         
_________________________________________________________________
dense (Dense)                (None, 512)               524800    
_________________________________________________________________
dropout_2 (Dropout)          (None, 512)               0         
_________________________________________________________________
dense_1 (Dense)              (None, 1)                 513       
=================================================================
Total params: 1,489,025
Trainable params: 1,487,617
Non-trainable params: 1,408
_________________________________________________________________
No pre-trained weights found
No pre-trained weights found
No pre-trained weights found
No pre-trained weights found
Train on 412416 samples, validate on 137471 samples
Train on 412416 samples, validate on 137471 samples
…
